Base Step:start with mnist/results/model.pth (torch, 250751 bytes, 10 tensors)

features.conv2dtanh1.conv.weight f4 [6, 1, 5, 5]
0	0x3e03c3cc	0.1286766
1	0x3e701239	0.23444451
2	0xbe33d8ef	-0.17563222
3	0xbe825845	-0.2545797
4	0xbe69cf8c	-0.22833079
5	0x3e0802dd	0.13282342
6	0xbd65cc1a	-0.05610285
7	0xbe16a576	-0.14711556
8	0xbf032512	-0.5122844
9	0xbedf89af	-0.43659732
10	0x3d72fe5d	0.05932461
11	0xbda465ad	-0.080272056
12	0xbefc8695	-0.49321428
13	0xbf080a2a	-0.5314051
14	0xbeb1c16f	-0.3471789
15	0x3e56991f	0.20956849
16	0x3e4af24c	0.19818991
17	0x3dcf0b5b	0.10109588
18	0xbde5f62b	-0.112285934
19	0x3da39b91	0.07988656
20	0x3e92c9ef	0.28669688
21	0x3ecdc99a	0.40192872
22	0x3e5f99be	0.21835992
23	0x3ef158c8	0.47138047
24	0x3eb5ca4e	0.3550591
25	0x3c34076f	0.0109881
26	0x3db4c23a	0.08826108
27	0xbe57b96d	-0.21066828
28	0xbcb3278c	-0.021869443
29	0x3cf05700	0.02933836
30	0xbe10b223	-0.14130454
31	0xbd38a17d	-0.045075882
32	0xbee1aef9	-0.44078806
33	0xbed803f4	-0.42190516
34	0xbed1a633	-0.40947112
35	0xbe27c88c	-0.16385096
36	0xbe80b450	-0.25137568
37	0xbdb2ef5e	-0.08737062
38	0xbe3f7f70	-0.18700957
39	0xbdcfe7bd	-0.101516224
40	0x3dcb6aa5	0.0993245
41	0xbdbf81a7	-0.09350901
42	0x3c746532	0.014916705
43	0xbe25318e	-0.16132185
44	0xbd9dd32e	-0.07706295
45	0x3d195ba0	0.037440896
46	0x3e819a70	0.2531314
47	0x3e7da60a	0.2477037
48	0x3dc325c7	0.0952869
49	0x3e58a9e6	0.21158561
50	0x3da0cebd	0.07851932
51	0x3d7a6425	0.06113066
52	0xbdfcb046	-0.12338309
53	0xbe5314f3	-0.2061346
54	0xbdc310a1	-0.09524656
55	0xbe148583	-0.14504056
56	0xbdabbbc2	-0.08385421
57	0xbea49245	-0.32142845
58	0xbe825f0a	-0.25463134
59	0xbe32d627	-0.17464505
60	0x3d8e2569	0.06940729
61	0x3c993719	0.01870303
62	0xbdac5fcc	-0.08416709
63	0x3e94ad6c	0.2903856
64	0x3ea50d14	0.3223654
65	0xbdc91dde	-0.0982015
66	0xbcf90108	-0.030396
67	0x3e548c51	0.20756651
68	0x3f12e7e3	0.5738508
69	0x3f081210	0.5315256
70	0xbeabaf07	-0.33531973
71	0xbe5e7039	-0.21722497
72	0x3e134a0b	0.14383714
73	0x3eeea5ac	0.46610773
74	0x3e9fa398	0.311795
75	0x3e72d3a7	0.23713551
76	0x3e3c8a16	0.1841205
77	0xbc07c399	-0.00828638
78	0x3e1bcb6a	0.15214315
79	0xbc0ef204	-0.008724693
80	0xbe0f4017	-0.13989292
81	0x3e8599a3	0.26093778
82	0x3e298b6b	0.1655709
83	0xbea3796d	-0.31928578
84	0xbdce056f	-0.1005963
85	0xbbcc78da	-0.0062399926
86	0xbc5856aa	-0.013204256
87	0xbe54b066	-0.20770416
88	0xbe8c904f	-0.2745385
89	0xbee7b372	-0.45254093
90	0x3e08a7d1	0.13345267
91	0x3e0f97e9	0.14022793
92	0x3d04895e	0.032357566
93	0xbe874192	-0.26417214
94	0xbee56b17	-0.44808266
95	0xbc5b89de	-0.013399569
96	0x3e569552	0.20955399
97	0x3d28824a	0.04113988
98	0xbe8c8f8d	-0.2745327
99	0xbe06e46f	-0.13173078
100	0x3e90fd68	0.28318334
101	0x3db7bce8	0.08971578
102	0xbe2c7040	-0.16839695
103	0xbdd98898	-0.10621756
104	0xbe038c8d	-0.12846585
105	0xbd72a6a4	-0.059240952
106	0xbecc6eee	-0.39928383
107	0xbef908bd	-0.4863948
108	0xbe54f100	-0.20795059
109	0x3d041aeb	0.032252233
110	0xbe3d3e8c	-0.18480891
111	0xbe987426	-0.29776114
112	0xbf05e1b5	-0.52297527
113	0x3c72c2e7	0.014816976
114	0x3e26a1da	0.16272679
115	0xbeaaf61b	-0.3339089
116	0xbed00dd3	-0.40635547
117	0xbe1bcb94	-0.15214378
118	0x3d81f534	0.06345597
119	0x3e4d6dbf	0.20061396
120	0xbce01cae	-0.027357426
121	0xbdd8c898	-0.10585135
122	0xbcc74259	-0.02432363
123	0x3ea387d4	0.31939566
124	0x3d9433f4	0.07236472
125	0xbeb7dd79	-0.35911158
126	0xbe88e54c	-0.2673744
127	0xbe8f5e7a	-0.28001767
128	0xbe782f2e	-0.24236748
129	0xbeb89bfe	-0.36056513
130	0xbe98bfef	-0.29833934
131	0xbdefe232	-0.11713065
132	0xbe6fa394	-0.23402244
133	0xbe162dde	-0.14665934
134	0xbd5c79d1	-0.05382711
135	0x3d108c30	0.035289943
136	0x3e39b2bc	0.18134588
137	0x3e2e5173	0.17023258
138	0x3e027ff0	0.12744117
139	0x3debf691	0.11521638
140	0x3f2e8d34	0.6818421
141	0x3f368faa	0.71312964
142	0x3f3bc12b	0.73341626
143	0x3ec92694	0.39287245
144	0x3d15d415	0.03657921
145	0x3e8f0fdc	0.27941787
146	0x3eccc7e0	0.39996243
147	0x3e836619	0.25663832
148	0x3e363ace	0.1779587
149	0xbc5f088f	-0.01361288

features.conv2dtanh1.conv.bias f4 [6]
0	0x3cd7a672	0.026324484
1	0x3ca3d35e	0.019998249
2	0xbda2815e	-0.07934831
3	0x3ddb4c76	0.10707943
4	0x3dee3909	0.11631972
5	0xbdc36908	-0.095415175

features.conv2dtanh2.conv.weight f4 [16, 6, 5, 5]
0	0x3e49a062	0.19690087
1	0x3c7ddb49	0.015494176
2	0x3e349266	0.17633972
3	0x3e4cac33	0.19987564
4	0x3cf4a14e	0.029862072
5	0xbd3f7361	-0.046740893
6	0xbdc67b1a	-0.096914485
7	0xbda3462d	-0.07972369
8	0x3d580329	0.05273739
9	0x3d5a9327	0.05336299
10	0x3d13b651	0.036062542
11	0x3d297673	0.041372728
12	0xbeb0ac6c	-0.34506547
13	0x3caa5655	0.02079312
14	0x3e273ff0	0.16332984
15	0x3d74cafd	0.059763897
16	0x3c8d5d6d	0.017256463
17	0xbe9fdbf5	-0.312225
18	0x3be1aeda	0.006887299
19	0x3da0b5bb	0.07847162
20	0x3bd271e9	0.0064222706
21	0xbe67231f	-0.22571991
22	0xbe6b511c	-0.2298016
23	0xbca56891	-0.020191463
24	0xbca2b889	-0.019863384
25	0x3d79d608	0.06099513
26	0x3e1b71f2	0.15180185
27	0x3e1230b7	0.14276396
28	0x3e435c93	0.19078283
29	0x3dc9ad0c	0.09847459
30	0x3be8f3c6	0.007109138
31	0xbcdf527f	-0.027261017
32	0xbda59868	-0.0808571
33	0x3d7f7640	0.06236863
34	0x3d553b18	0.05205831
35	0x3d4b5a0f	0.049646433
36	0xbddced07	-0.10787397
37	0xbda7f9e1	-0.082019575
38	0xbdc68552	-0.096933976
39	0xbd64f46a	-0.055897154
40	0xbdccb741	-0.099958904
41	0xbd99d4e8	-0.07511312
42	0xbe33f583	-0.17574124
43	0xbd2d3281	-0.042284492
44	0xbc312a2f	-0.01081328
45	0x3bf9e6da	0.0076263966
46	0xbdf9f630	-0.1220516
47	0xbe00d406	-0.1258088
48	0xbd2a31b0	-0.041551292
49	0x3daf9fd0	0.08575404
50	0x3cb43fd3	0.02200309
51	0x3d5dd883	0.05416156
52	0xbcd91589	-0.026499527
53	0xbd77bf76	-0.060485326
54	0xbe184b9c	-0.14872593
55	0xbd9d88a7	-0.0769208
56	0x3d34be5a	0.044126846
57	0x3ea7e5e5	0.32792583
58	0x3dbc1bac	0.091849655
59	0xbbd91e1e	-0.0066259047
60	0xbe4cf140	-0.20013905
61	0x3d8b202e	0.06793247
62	0x3eadb161	0.33924392
63	0xbe24e5dd	-0.16103311
64	0x3ca1109a	0.019661237
65	0x3c591209	0.013248929
66	0x3e6d5a7f	0.23179053
67	0x3e39f6d0	0.18160558
68	0xbe1d955d	-0.15389009
69	0x3dbd90e4	0.09256151
70	0xbe2c011e	-0.16797301
71	0xbdda945e	-0.1067283
72	0xbe68e83d	-0.22744842
73	0xbe214804	-0.15750128
74	0x3c4eec27	0.012629545
75	0x3d60ec46	0.054912828
76	0x3ccd2782	0.025043253
77	0x3e4d6c79	0.2006091
78	0x3e74220c	0.23841113
79	0x3d8ee5b8	0.06977409
80	0xbcc23991	-0.02370909
81	0xbe08b1b9	-0.13349046
82	0xbe567a6c	-0.20945138
83	0x3d81c408	0.06336218
84	0x3d1e9f6c	0.038726255
85	0x3d5161e7	0.051118758
86	0xbe0989bd	-0.13431449
87	0xbe84bfe2	-0.25927645
88	0x3e12834d	0.143079
89	0xbdc5b7d7	-0.09654205
90	0x3d424852	0.04743225
91	0xbe9b1462	-0.30288988
92	0xbe696368	-0.22791827
93	0x3e172c8b	0.14763086
94	0xbd24d0d3	-0.040238213
95	0x3dfe2fe7	0.124114804
96	0x3cb2e343	0.021836882
97	0x3bb52911	0.005528577
98	0x3e145ca6	0.14488468
99	0x399118bf	0.00027674992
100	0x3d45e067	0.04830971
101	0x3dd5a5af	0.10431992
102	0x3d1109ae	0.035409622
103	0x3df9e005	0.122009315
104	0x3dd05802	0.10173036
105	0x3d4acac1	0.049509767
106	0x3d430ffe	0.047622673
107	0x3dde1a26	0.10844831
108	0xbcec5417	-0.02884869
109	0xbde124c3	-0.1099334
110	0xbe35dd3e	-0.17760178
111	0xbc3e7b5d	-0.011626092
112	0xbc4a11fa	-0.0123333875
113	0xbe545ee5	-0.20739324
114	0xbdca0631	-0.09864462
115	0xbe6e1f7b	-0.23254196
116	0xbe25e6c6	-0.16201314
117	0xbe35e3c9	-0.17762674
118	0xbe532a2c	-0.20621556
119	0xbd9cc51c	-0.07654783
120	0x3d02690e	0.03183847
121	0xbd35af1e	-0.044356458
122	0xbdc4a24e	-0.0960127
123	0x3d752595	0.059850294
124	0x3e0bd45c	0.13655227
125	0xbe1e8b88	-0.15482914
126	0xbe0f8079	-0.14013852
127	0x3cecc72f	0.028903572
128	0xbc8a60b4	-0.016891815
129	0x3dc26d72	0.09493531
130	0xbda2f7d9	-0.079574294
131	0xbd95c1f9	-0.07312388
132	0x3d9749cf	0.07387125
133	0x3ea70afe	0.32625574
134	0x3e49ec33	0.19719009
135	0x3d735557	0.05940756
136	0xbdbad535	-0.09122697
137	0x3cc5cd36	0.024145704
138	0x3ce5b0df	0.02803844
139	0xbe31ae20	-0.1735158
140	0x3dcf4cfb	0.10122105
141	0xbe024024	-0.1271978
142	0x3d26402b	0.04058854
143	0xbd254e93	-0.040358137
144	0xbe48e974	-0.19620305
145	0xba6543eb	-0.00087457773
146	0xbddaea4e	-0.10689221
147	0xbdd3610a	-0.10321243
148	0xbe383458	-0.17988718
149	0xbe4b3213	-0.1984332
150	0xbdfccb68	-0.12343484
151	0xbe420266	-0.18946227
152	0xbe59aa71	-0.21256424
153	0xbe34c5e4	-0.17653614
154	0xbe2b1ba7	-0.16709767
155	0xbd0c1b5c	-0.03420578
156	0x3d1764cb	0.036961358
157	0x3c735574	0.014851917
158	0x3dc35c40	0.0953908
159	0x3e106008	0.14099133
160	0xbd1ca71c	-0.038245305
161	0x3e1c5981	0.15268518
162	0x3e4379ff	0.19089507
163	0xbd11c884	-0.035591617
164	0xbd6f13a8	-0.058368355
165	0x3ea7ab95	0.32748094
166	0x3e984345	0.29738823
167	0x3ea03f0d	0.31298104
168	0x3d91a391	0.07111276
169	0x3d457cad	0.048214603
170	0xbdcea0f0	-0.1008929
171	0xbeaf10ba	-0.3419245
172	0xbe2628c7	-0.16226493
173	0xbd742516	-0.05960568
174	0x3d0d0cfc	0.03443621
175	0xbe18bc94	-0.14915687
176	0xbd775310	-0.06038195
177	0xbe1c3d16	-0.15257677
178	0xbe6d9bbe	-0.23203942
179	0xbd83b22d	-0.06430469
180	0x3d21b012	0.039474554
181	0x3cfc5aa5	0.030804941
182	0xbc0b8934	-0.0085165985
183	0x3d22ceb2	0.0397479
184	0xbc911ce6	-0.017713975
185	0xbd970ba4	-0.07375267
186	0x3d3ffed9	0.0468739
187	0x3c9e68ac	0.01933702
188	0xbdf467ac	-0.11933836
189	0xbb4112b3	-0.0029460608
190	0x3d52bd58	0.051450104
191	0x3d10af44	0.035323396
192	0xbddabe47	-0.10680824
193	0xbd701067	-0.058609392
194	0xbdc5edaa	-0.096644714
195	0xbddac382	-0.106818214
196	0xbe7489a0	-0.23880625
197	0xbe2c7d3e	-0.16844651
198	0xbdf3adde	-0.11898397
199	0xbd3bf3c6	-0.045886777
200	0xbdaee80c	-0.08540353
201	0xbd6e8881	-0.05823565
202	0xbe82ba68	-0.25532842
203	0xbe0ef489	-0.1396047
204	0xbdf87e77	-0.12133496
205	0xbe2e6ba9	-0.17033257
206	0xbe8dc1d2	-0.27686936
207	0xbe14771d	-0.14498563
208	0xbd32eff0	-0.043685853
209	0xbc7c95e0	-0.015416592
210	0xbdf37d56	-0.1188914
211	0xbe7d723a	-0.24750605
212	0xbe204c81	-0.15654184
213	0xbc479923	-0.012182507
214	0xbe0c8cbe	-0.13725564
215	0x3e7ad334	0.2449463
216	0x3e296d80	0.16545677
217	0xbb40c2d6	-0.0029413006
218	0xbe073199	-0.13202514
219	0xbdf38c6d	-0.118920185
220	0x3e60be73	0.2194765
221	0x3e2f888c	0.17141932
222	0x3e24821e	0.16065261
223	0x3e5011e4	0.20319325
224	0x3e55a81d	0.20864911
225	0x3da06dee	0.078334674
226	0x3d6362e4	0.05551423
227	0x3dc7652d	0.097360946
228	0x3d7a26bb	0.061072093
229	0x3e0e87e9	0.13919033
230	0x3e3170b6	0.17328152
231	0x3e7410eb	0.23834579
232	0x3e4e469b	0.20144121
233	0x3e557e0a	0.20848861
234	0x3e554e11	0.20830561
235	0x3e337c83	0.17527966
236	0x3e1ea6ff	0.15493391
237	0x3d8610cb	0.06546172
238	0xbdbb5bef	-0.09148394
239	0x3e09ae09	0.13445295
240	0x3d1d5ae6	0.038416766
241	0xbba9171f	-0.005160227
242	0x3bfa650c	0.0076414403
243	0x3dd6e7aa	0.10493405
244	0x3e45bc36	0.19310078
245	0xbe45e04a	-0.1932384
246	0xbe61db57	-0.22056328
247	0xbca7fe06	-0.02050687
248	0xbd13e4cc	-0.03610687
249	0xbd99cefb	-0.075101815
250	0x3e34dc28	0.17662108
251	0x3df65351	0.1202761
252	0xbd7d1ab3	-0.06179304
253	0xbd037aaf	-0.032099422
254	0xbd55076d	-0.052009035
255	0x3e17a86d	0.14810343

features.conv2dtanh2.conv.bias f4 [16]
0	0xbcdca450	-0.026933819
1	0x3d5244ea	0.051335253
2	0xbdd73153	-0.10507455
3	0xbc8b3de9	-0.016997295
4	0xbe094860	-0.13406515
5	0xbd14f1fd	-0.03636359
6	0x3de8615b	0.11346694
7	0xbdb25cea	-0.08709128
8	0xbd120c98	-0.03565654
9	0xbdf3e4e4	-0.11908892
10	0xbe3b67fb	-0.18301384
11	0xbd7176fb	-0.05895136
12	0x3b127fad	0.0022353933
13	0xbdb39b3c	-0.08769843
14	0x3dc17274	0.09445658
15	0xbe025495	-0.12727578

features.conv2dtanh3.conv.weight f4 [120, 16, 5, 5]
0	0xbda6d0e6	-0.08145313
1	0x3c7c7a7f	0.015410065
2	0x3c4bace2	0.012431355
3	0x3e505c6f	0.2034776
4	0x3cfa6a95	0.0305684
5	0xbdab45a6	-0.08362894
6	0x3c99ed2b	0.018789848
7	0x3e045ce4	0.1292606
8	0x3ca1728c	0.01970794
9	0x3da81c88	0.08208567
10	0xbde6a456	-0.11261813
11	0xbd8d919c	-0.069125384
12	0xbe1cd74e	-0.15316507
13	0xbdd55719	-0.10417003
14	0x3d73eb96	0.059550844
15	0x3d85d368	0.06534463
16	0x3b3eff7b	0.0029143977
17	0xbc63aae7	-0.013895727
18	0xbe0a4b90	-0.13505387
19	0xbdb75dd7	-0.089534454
20	0x3d3f4e2c	0.04670541
21	0x3cd80bf2	0.026372883
22	0xbe2332a7	-0.15937291
23	0xbe9a7768	-0.30169225
24	0x3d92c39f	0.07166218
25	0xbcae1e71	-0.02125475
26	0xbd72d097	-0.059280958
27	0xbdd7ffe4	-0.10546854
28	0xbd695ea9	-0.05697504
29	0xbc84e9cd	-0.016224766
30	0xbb65fe29	-0.0035094118
31	0xbdd45fdd	-0.10369847
32	0xbde286ab	-0.11060842
33	0xbec4cc24	-0.38436997
34	0xbda56ec3	-0.08077767
35	0x3cc3d330	0.023904413
36	0x3debad08	0.115076125
37	0x3d559cb9	0.052151415
38	0xbdb014a0	-0.08597684
39	0xbe6b7caa	-0.22996774
40	0xbd5ccf7d	-0.053908814
41	0x3d7b3a87	0.061335113
42	0x3d592efc	0.053023323
43	0xbdb2805c	-0.08715889
44	0xbda45656	-0.0802428
45	0xbd9ff7d2	-0.0781094
46	0x3d9693a6	0.073523805
47	0x3e2daa50	0.169595
48	0x3eb41a1b	0.35176167
49	0x3e9e2ad5	0.30892053
50	0x3e115974	0.1419428
51	0xbd294ab4	-0.041331008
52	0xbe829e27	-0.25511286
53	0xbe167ecc	-0.14696807
54	0xbcf81f0d	-0.030288244
55	0x3c920ede	0.017829355
56	0x3cc35928	0.023846224
57	0xbe721c59	-0.23643626
58	0x3c8a69f2	0.016896222
59	0xbdd80be1	-0.10549141
60	0x3b1b5934	0.0023704292
61	0x3db64641	0.089001186
62	0x3dc3ba7d	0.09557054
63	0x3e03bc74	0.12864858
64	0x3d82f2d4	0.06393972
65	0xbe25a0c9	-0.16174616
66	0xbabab6bd	-0.0014245134
67	0x3ccd541a	0.025064517
68	0x3d538828	0.05164352
69	0xbeb1c517	-0.3472068
70	0xbdcd84b3	-0.10035076
71	0xbe29e224	-0.16590172
72	0x3d940c65	0.072289266
73	0xbe2c8659	-0.16848125
74	0xbd087b19	-0.03332052
75	0xbdc560e2	-0.096376196
76	0x3d096a2b	0.033548515
77	0x3e3f4899	0.18680038
78	0x3da27637	0.07932704
79	0x3debc96e	0.11513029
80	0xbc8783f2	-0.016542409
81	0xbe69baf9	-0.2282523
82	0xbd07ab07	-0.03312209
83	0x3d26f6f8	0.04076287
84	0x3ddb3827	0.107040696
85	0xbe051068	-0.1299454
86	0xbb981286	-0.00464088
87	0xbd439e95	-0.047758657
88	0xbe1ebfe7	-0.15502892
89	0x3c149f27	0.009071148
90	0x3dce7f9b	0.100829326
91	0xbc56be0b	-0.013106833
92	0xbe0bb51d	-0.13643308
93	0xbe9aa7a0	-0.30206013
94	0x3e3bf0b0	0.18353534
95	0x3d23a35a	0.039950706
96	0x3e184496	0.14869913
97	0xbe09dcba	-0.13463107
98	0xbdadff6c	-0.084959835
99	0xbde2b8d8	-0.110704124
100	0x3d453043	0.04814173
101	0x3e81a080	0.25317764
102	0x3e3aa73e	0.1822786
103	0xbdfe90d0	-0.124299645
104	0x3da9b2db	0.08286067
105	0xbe0df4c5	-0.13862903
106	0x3c479162	0.012180658
107	0x3de668b9	0.11250443
108	0xbdbe0cce	-0.09279786
109	0xbe4912b9	-0.19636048
110	0xbc90571c	-0.017619662
111	0x3d95dbc0	0.073173046
112	0x3d11ff0b	0.03564362
113	0x3e1f6dce	0.15569231
114	0xbd9c4f23	-0.07632282
115	0xbd44262e	-0.047887973
116	0x3c9a7e36	0.01885901
117	0x3bbff7ee	0.005858413
118	0x3e017d3f	0.12645434
119	0x3e44cb67	0.19218217
120	0x3d432f9f	0.047652837
121	0x3bbc4429	0.00574543
122	0x3d8c7aae	0.06859337
123	0x3e9b3770	0.30315733
124	0x3dab3e9a	0.0836155
125	0x3d53e9e5	0.05173673
126	0xbd7fc8bf	-0.062447306
127	0xbe6f3f49	-0.23363985
128	0x3e2aa3c4	0.16664034
129	0x3d31e4ea	0.0434312
130	0x3dac7eb9	0.08422608
131	0xbe49ea2f	-0.1971824
132	0xbecaa3d3	-0.39578113
133	0x3b35b816	0.0027728132
134	0xbdd2bc16	-0.10289781
135	0x3db22b0c	0.08699617
136	0xbd3bd2ab	-0.045855206
137	0xbda50810	-0.080581784
138	0xbe426ebe	-0.18987557
139	0xbe92ba5b	-0.28657803
140	0xbcff789a	-0.031185437
141	0x3c8031ef	0.01564881
142	0xbceae966	-0.028675746
143	0xbe636ee8	-0.22210276
144	0xbedda71c	-0.43291557
145	0xbe0ec41e	-0.13942
146	0x3d4e5568	0.05037442
147	0x3dc2831d	0.09497664
148	0xbe23ee5d	-0.16008897
149	0xbea457f1	-0.32098344
150	0xbac27cda	-0.0014838234
151	0x3e318ea1	0.17339565
152	0xbe2de890	-0.16983247
153	0x3da1be2e	0.07897602
154	0x3ca427fb	0.020038595
155	0x3d06d004	0.032913223
156	0x3e535690	0.2063849
157	0x3e4491d4	0.19196254
158	0xbe298d43	-0.16557793
159	0xbe3a3bcc	-0.18186873
160	0x3d233c78	0.03985259
161	0x3d41cee5	0.04731645
162	0x3de0680b	0.109573446
163	0xbd006238	-0.03134367
164	0xbdd65879	-0.104660936
165	0xbe10c550	-0.14137769
166	0xbbb00a5e	-0.0053723296
167	0x3e069f22	0.13146642
168	0x3df8b376	0.121436045
169	0xbc2c5a9d	-0.010519651
170	0xbd90d1a8	-0.07071239
171	0xbe1189bd	-0.14212699
172	0x3d2ed5fa	0.042684533
173	0x3de11e61	0.109921224
174	0x3e9c00b3	0.30469283
175	0xbd88a5b8	-0.06672233
176	0xbdc42d3b	-0.095789395
177	0xbe09eb86	-0.13468751
178	0xbe820083	-0.25391015
179	0x3d341178	0.043961972
180	0xbc1b065e	-0.009461967
181	0x3ca410be	0.020027515
182	0x3e41ac0d	0.18913288
183	0x3df25ba5	0.11833886
184	0x3df402a5	0.11914567
185	0xbd09b245	-0.033617277
186	0x3d0cee90	0.0344072
187	0xbd46492f	-0.048409637
188	0x3da56b51	0.080771096
189	0xbe5e47f3	-0.21707134
190	0x3d2b7238	0.041856974
191	0xbe4a93da	-0.19782963
192	0x3d192158	0.037385315
193	0xbe38e779	-0.1805705
194	0xbde1a968	-0.1101864
195	0x3dd806e2	0.10548188
196	0xbb32022e	-0.0027161944
197	0xbdb99a79	-0.090626664
198	0x3e8cebd9	0.27523687
199	0x3c1649a0	0.009172827
200	0x3c311e1f	0.010810404
201	0x3e06db89	0.13169684
202	0x3e005235	0.1253136
203	0x3d3c448e	0.045963816
204	0xbe02b60c	-0.12764758
205	0x3d85c1a5	0.065310754
206	0x3de65aec	0.11247811
207	0x3e091efe	0.13390729
208	0x3d92df4a	0.07171495
209	0x3d207033	0.0391695
210	0xbd889070	-0.06668174
211	0x3d126e6c	0.035749838
212	0x3dfa82f5	0.12232009
213	0x3e47ae09	0.19499983
214	0x3e11ce69	0.14238895
215	0x3db4cd7a	0.08828254
216	0xbdd5e822	-0.104446664
217	0xbd266386	-0.040622257
218	0x3e948978	0.2901113
219	0x3ce09ca0	0.027418435
220	0xbdcc75de	-0.09983419
221	0xbdce1678	-0.10062879
222	0xbd4073a3	-0.04698528
223	0x3d3ed96b	0.046594065
224	0xbcdf8337	-0.027284248
225	0x3e695876	0.22787651
226	0x3db8fb41	0.09032298
227	0xbdfba179	-0.12286658
228	0xbe839f0b	-0.25707278
229	0xbe19f5f4	-0.1503523
230	0x3e1f7b76	0.1557444
231	0x3cae0277	0.02124141
232	0xbde350e4	-0.11099413
233	0x3cdbf1ac	0.026848637
234	0xbd2f7c1b	-0.042842966
235	0x3e311a3f	0.17295168
236	0x3e11e294	0.14246589
237	0x3d8d2c2a	0.06893189
238	0x3dc58cdb	0.09646007
239	0x3d5da1fb	0.054109555
240	0x3d4e1718	0.050314993
241	0x3daada11	0.08342374
242	0x3d998428	0.0749591
243	0x3e913e33	0.28367767
244	0x3d1b795e	0.03795754
245	0xbe271d90	-0.16319871
246	0xbd038b23	-0.032115113
247	0x3e8999b3	0.26875076
248	0x3ec5f968	0.38666844
249	0xbd999d0d	-0.07500658
250	0xbddb37e9	-0.107040234
251	0xbbd91921	-0.00662531
252	0xbc262992	-0.010141747
253	0xbc430281	-0.011902452
254	0x3e0fc4eb	0.14039962
255	0xbcea5a32	-0.028607462

features.conv2dtanh3.conv.bias f4 [120]
0	0xbd498514	-0.04919918
1	0x3da74b3c	0.08168647
2	0x3d48dc83	0.04903842
3	0xbd30f274	-0.04319997
4	0x3d6a0fc8	0.057143956
5	0x3dbf8dcb	0.09353217
6	0xbcd2b553	-0.025721228
7	0x3dad92f8	0.08475298
8	0x3d1f4334	0.03888245
9	0x3d8bd3a6	0.06827478
10	0xbdeac595	-0.11463467
11	0xbdbaa601	-0.09113694
12	0x3dac2441	0.084053524
13	0x3d9d6a11	0.07686246
14	0x3e0b6cd0	0.13615727
15	0x3d4fc238	0.05072233
16	0x3d73a9df	0.059488174
17	0x3c68ae27	0.014201677
18	0x3d1c4d6e	0.03815978
19	0x3da64ec6	0.081204936
20	0xbd5e8acc	-0.054331586
21	0xbb4440ca	-0.0029945844
22	0xbd4b0749	-0.049567495
23	0xbc8767e3	-0.01652903
24	0xbdb17b3f	-0.086660855
25	0x3d4bbd49	0.049741063
26	0xbd11577e	-0.03548383
27	0x3d14f796	0.03636893
28	0x37af2ce3	2.0882528e-05
29	0xbdb4b33c	-0.08823249
30	0x3cfe97fe	0.031078335
31	0x3d2dbf48	0.04241875
32	0xbe54c3fd	-0.20777889
33	0xbd93aa11	-0.07210172
34	0xbd601b2d	-0.054713417
35	0xbdb500d2	-0.08838047
36	0x3cea0951	0.028568896
37	0x3d83656c	0.06415829
38	0xbd08cdee	-0.033399515
39	0xba9d4d04	-0.0012001102
40	0xbda52091	-0.08062852
41	0x3d3fcb39	0.046824668
42	0x3e2e3ad9	0.17014636
43	0x3d11976b	0.035544794
44	0x3d8a6d9c	0.067591876
45	0x3e32631f	0.17420624
46	0xbcc151e9	-0.023598628
47	0xbdaf5ed3	-0.08563008
48	0x3da82ec1	0.082120426
49	0xbcfd12dc	-0.030892782
50	0x3cccd25d	0.025002653
51	0x3da5aba7	0.08089381
52	0xbdfc3f1a	-0.12316723
53	0xbc096474	-0.008385766
54	0xbcf02561	-0.029314699
55	0xbd9c89a0	-0.076434374
56	0xbdbaaa07	-0.091144614
57	0xbcc70315	-0.024293462
58	0xbd66daa3	-0.056360852
59	0x3dfccc82	0.12343694
60	0x3d8692d1	0.06570972
61	0xbde48b76	-0.111594126
62	0xbcc17b2b	-0.023618301
63	0xbddfc2af	-0.10925805
64	0x3b88b108	0.0041714944
65	0x3d012565	0.031529803
66	0xbdfb706f	-0.122773044
67	0xbd06ea18	-0.032938093
68	0xbd350f41	-0.044204
69	0xbb0b81ea	-0.0021287152
70	0xbd61d925	-0.055138726
71	0xbc18b50d	-0.00932051
72	0xbdba5b9c	-0.09099504
73	0x3aaefc88	0.0013350407
74	0xbbde332f	-0.006781004
75	0xbd5d5745	-0.054038305
76	0xbe02f27c	-0.12787813
77	0xbda736d7	-0.08164757
78	0x3d60accb	0.05485229
79	0xbc82f438	-0.015985593
80	0x3d968859	0.07350225
81	0xbe0fb21a	-0.14032784
82	0x3db9feec	0.090818256
83	0xbc8a6725	-0.016894886
84	0xbbb86dd1	-0.0056283255
85	0xbd9b363b	-0.07578703
86	0xbd9ac980	-0.07557964
87	0x3c18f939	0.009336763
88	0x3ce0e547	0.027453078
89	0x3c3edc5f	0.01164922
90	0xbd048ed1	-0.032362763
91	0xbce84d2d	-0.028357113
92	0xbd142df1	-0.036176626
93	0x3b880787	0.004151288
94	0xbca4665d	-0.020068342
95	0xbc2d3915	-0.010572691
96	0x3d06d57b	0.032918435
97	0xbd460da3	-0.04835285
98	0xbdd6fe55	-0.10497729
99	0x3c90271a	0.01759677
100	0x3cec70de	0.028862413
101	0xbd48a149	-0.04898194
102	0xbd1f672c	-0.03891675
103	0x3d8753d1	0.066077836
104	0xbd824cd1	-0.06362308
105	0xbdb930f7	-0.090425424
106	0xbe2b6a5e	-0.16739795
107	0x3d532eec	0.05155842
108	0xbdb8e458	-0.09027928
109	0x3baf02c0	0.005340904
110	0x3cb6e352	0.022325192
111	0xbe05f0c2	-0.13080123
112	0xbd8a1da8	-0.06743938
113	0x3df736d0	0.120710015
114	0x3d10c895	0.03534754
115	0xbe1669e7	-0.14688836
116	0x3bce5efa	0.006297943
117	0xbd28069a	-0.04102192
118	0xbd33e6b0	-0.043921173
119	0x3d22425e	0.039614074

classifier.fc1.weight f4 [84, 120]
0	0x3c5326f2	0.012887703
1	0x3e4befef	0.19915746
2	0xbe4ce530	-0.20009303
3	0xbdd83f84	-0.1055899
4	0xbd8d8a25	-0.069111146
5	0xbeb9dc82	-0.36301047
6	0xbe0eac20	-0.13932848
7	0x3cabf565	0.020991037
8	0xbdeb8743	-0.115004085
9	0xbd76c670	-0.06024784
10	0x3df1cd0a	0.11806686
11	0xbd8e4b9a	-0.069480136
12	0xbe5081cb	-0.20362012
13	0x3e062d61	0.13103248
14	0xbd4deeaa	-0.050276436
15	0x3d95a287	0.0730639
16	0x3dcd0104	0.10009959
17	0xbd9949ba	-0.07484765
18	0xbe8f4c7f	-0.2798805
19	0xbbb11381	-0.0054039364
20	0xbde47b3f	-0.1115632
21	0x3e0d9d16	0.13829455
22	0xbe9a0179	-0.3007925
23	0x3e010d66	0.12602767
24	0x3e72b560	0.23702002
25	0x3dca75e7	0.09885769
26	0x3c70142e	0.014653249
27	0xbc3961a1	-0.01131478
28	0x3eb79d5e	0.3586225
29	0x3de55acd	0.111989595
30	0x3d50a441	0.050937895
31	0x3dacf0e2	0.08444382
32	0x3ce50f2d	0.027961338
33	0x3dd6d18d	0.104891874
34	0xbdda456a	-0.10657771
35	0x3cd55dee	0.026045766
36	0xbe62ea69	-0.22159733
37	0x3de2cbfd	0.11074064
38	0xbe2a0201	-0.16602327
39	0xbe51f4bb	-0.20503514
40	0xbd9f5f9f	-0.0778191
41	0xbb59b16b	-0.0033217322
42	0xbe49cf39	-0.19707955
43	0xbd2653cc	-0.04060726
44	0xbd6089e5	-0.054819006
45	0x3cf677c9	0.030086415
46	0x3e01fa3e	0.12693116
47	0xbe5a7def	-0.21337102
48	0xbe635ecf	-0.22204135
49	0x3e26b19a	0.16278687
50	0xbe896036	-0.26831216
51	0x3e3c3a38	0.18381584
52	0xbeadd0c8	-0.3394835
53	0xbdd6d613	-0.1049005
54	0x3dcab3ec	0.098975986
55	0xbe2c0b2a	-0.16801134
56	0x3e179443	0.14802651
57	0x3c9a3d89	0.01882817
58	0x3db1f140	0.08688593
59	0xbdbcddb3	-0.09221973
60	0xbe4040fc	-0.1877479
61	0xbdc75c27	-0.097343735
62	0x3df9d056	0.1219794
63	0xbe0cbc9b	-0.13743822
64	0x3e606dfe	0.21916959
65	0x3e2f5367	0.17121659
66	0xbe46cb09	-0.1941339
67	0xbe13be2f	-0.14428018
68	0x3dce0ee5	0.10061435
69	0xbe52b372	-0.20576265
70	0x3e8d5e9c	0.27611244
71	0x3dac7043	0.0841985
72	0xbdbb0f0a	-0.09133728
73	0x39484e3b	0.0001910263
74	0x3e086870	0.1332109
75	0x3d9754f0	0.073892474
76	0x3d51cfc9	0.05122355
77	0xbce98b0f	-0.028508691
78	0xbe80e9fc	-0.25178516
79	0xbe8678d4	-0.2626406
80	0x3c8629ce	0.016377356
81	0x3e1f511a	0.15558282
82	0x3e253774	0.16134435
83	0x3e06b8d0	0.13156438
84	0x3cefdf9c	0.02928143
85	0x3e38b8c4	0.18039232
86	0xbd8a3dbe	-0.06750058
87	0x3e3c44b5	0.18385585
88	0xbe007546	-0.12544736
89	0xbdb1a453	-0.086739205
90	0xbe449306	-0.1919671
91	0x3bdf8f52	0.006822505
92	0xbd9141af	-0.07092606
93	0x3e2fc5ef	0.1716535
94	0xba64165d	-0.0008700842
95	0x3dd4bd6a	0.1038769
96	0x3e3edc41	0.18638708
97	0xbd6e1bce	-0.058131985
98	0xbdeb459b	-0.114878856
99	0xbd1471ef	-0.036241468
100	0x3e7037a2	0.23458722
101	0xbd42df6c	-0.047576353
102	0x3da7c0ab	0.081910454
103	0x3e9abdce	0.30222934
104	0x3dfcd6b4	0.12345639
105	0x3d9eea70	0.07759559
106	0x3d13b938	0.03606531
107	0x3d9f2f3a	0.077726796
108	0x3e19f96c	0.15036553
109	0x3d1efe09	0.038816486
110	0x3deb0ae7	0.11476689
111	0xbd336584	-0.043797985
112	0xbd9a8b19	-0.07546062
113	0xbdbcea7b	-0.09224411
114	0xbd98ed95	-0.0746719
115	0x3d0d4818	0.034492582
116	0xbe8abcc8	-0.27097154
117	0x3bcf2fa6	0.006322819
118	0xbe272739	-0.16323556
119	0x3db01461	0.08597637
120	0x3d49c744	0.0492623
121	0xbe14da8b	-0.14536493
122	0xbd8809c9	-0.06642491
123	0x3e3f5e52	0.18688324
124	0xbda76f52	-0.081755295
125	0xbd9f76ef	-0.07786357
126	0x3d1b2325	0.037875313
127	0xbbcc8cee	-0.006242386
128	0x3e46297c	0.19351763
129	0xbb8f8c06	-0.0043807058
130	0xbde421b7	-0.11139243
131	0xbd5de0a0	-0.054169297
132	0x3db40c1d	0.08791373
133	0x3db5b1bf	0.08871793
134	0x3e641652	0.2227414
135	0xbd0356d8	-0.032065243
136	0x3e0dd5e4	0.13851124
137	0x3c113732	0.008863257
138	0xbe95df3a	-0.2927187
139	0xbbd56540	-0.006512314
140	0x3d2e7da0	0.042600274
141	0x3d8a1d25	0.0674384
142	0xbe671f33	-0.22570495
143	0x3dbdd1ae	0.09268509
144	0xbc175ee8	-0.009238936
145	0x3e2d8b6a	0.16947713
146	0x3b2eb033	0.0026655316
147	0xbd22b76b	-0.039725702
148	0x3dfdffcb	0.12402304
149	0xbe565a1b	-0.2093281
150	0x3dfe0b02	0.12404443
151	0x3ec22997	0.37922356
152	0xbe19b483	-0.15010266
153	0x3e06bec3	0.13158707
154	0xbcc0096f	-0.023441998
155	0x3ddfb4e6	0.109231755
156	0x3d3f903b	0.04676841
157	0xbd7cd7f6	-0.061729394
158	0x3e662d69	0.2247826
159	0xbde46f11	-0.11153997
160	0x3da42a91	0.080159314
161	0xbb8240d4	-0.0039750133
162	0xbe4cc540	-0.1999712
163	0x3e752f27	0.23943768
164	0x3e6304d5	0.22169812
165	0x3dc639a5	0.096789636
166	0xbde1c6ea	-0.11024268
167	0x3e0946a2	0.1340585
168	0xbd08700d	-0.033309985
169	0x3da0d759	0.07853574
170	0x3b965659	0.00458793
171	0x3e945da0	0.2897768
172	0xbe9b61d4	-0.30348074
173	0xbc72953c	-0.014806088
174	0xbd076f27	-0.033064988
175	0x3ca0b457	0.019617243
176	0x3d3b5448	0.045734674
177	0xbdb7f03a	-0.089813665
178	0x3ea7101f	0.32629487
179	0xbe2d0f6e	-0.16900417
180	0x3d4d87dc	0.050178394
181	0xbd631efd	-0.055449475
182	0xbd8f1db0	-0.06988084
183	0xbdd36990	-0.10322869
184	0x3d92db3e	0.071707234
185	0x3e420aa4	0.18949372
186	0xbdccb0a9	-0.09994633
187	0xbdfc188e	-0.12309371
188	0xbda1936e	-0.07889448
189	0x3d195999	0.037438963
190	0x3e37f291	0.17963625
191	0xbde89cfc	-0.113580674
192	0xbb4da8cb	-0.0031381126
193	0x3ea24cb0	0.31699133
194	0x3dc737a7	0.09727412
195	0xbd281fb9	-0.041045878
196	0x3da2a453	0.079414986
197	0xbdc7b87e	-0.09751986
198	0x3d69f026	0.05711379
199	0xbe67181c	-0.22567791
200	0x3e2b5bf2	0.16734293
201	0x3e226d83	0.15862088
202	0x3d8dce0a	0.069240645
203	0x3cb3adf6	0.021933537
204	0xbe1f12f7	-0.15534578
205	0x3d9845e7	0.07435208
206	0xbdbf1405	-0.0932999
207	0x3cc5be80	0.024138689
208	0xbe11fd03	-0.14256673
209	0x3e2b8779	0.16750897
210	0xbc0151d4	-0.0078930445
211	0x3d85ae4f	0.06527387
212	0xbe40befa	-0.18822852
213	0x3e93d7f0	0.28875685
214	0x3e56e513	0.20985822
215	0x3e160de3	0.14653735
216	0xbdf55e2b	-0.11980852
217	0xbc55b692	-0.013044016
218	0x3db5f885	0.08885292
219	0x3cf50ec7	0.029914273
220	0xbe5dd871	-0.21664597
221	0x3b6c9dcf	0.0036104803
222	0x3d9d948d	0.076943494
223	0xbe25d8d5	-0.16195996
224	0x3e94c54f	0.29056785
225	0xbe040776	-0.12893471
226	0xbdc5ddd4	-0.09661451
227	0x3e9a5c92	0.3014875
228	0x3e772736	0.24136052
229	0x3bf51a75	0.0074799606
230	0x3e0b2be7	0.13590966
231	0x3dbe9a05	0.09306721
232	0xbe1558d5	-0.14584668
233	0xbdb615c2	-0.08890869
234	0xbdc80652	-0.097668305
235	0xbd7ed7f5	-0.06221767
236	0x3e9954cf	0.29947516
237	0xbe2b4c87	-0.16728412
238	0xbd39c557	-0.045354214
239	0xbd2978a6	-0.041374825
240	0xbde8ff64	-0.11376837
241	0xbe461fbc	-0.19348043
242	0xbe523b69	-0.20530476
243	0xbdc7159c	-0.097209185
244	0xbd8a32d3	-0.06747975
245	0xbdcfc2e5	-0.10144595
246	0xbe7aa062	-0.24475244
247	0x3e1df6cb	0.15426175
248	0x3d8aac85	0.06771187
249	0x3d3d96e3	0.046286475
250	0x3c3c4e27	0.011493242
251	0xbe3c35b5	-0.18379863
252	0xbe33c9f0	-0.17557502
253	0xbd4af68b	-0.049551528
254	0xbd3d4da8	-0.046216637
255	0x3e2586f6	0.16164765

classifier.fc1.bias f4 [84]
0	0xbe2b49c3	-0.16727357
1	0xbbbe4693	-0.005806753
2	0x3d2d4af3	0.042307805
3	0xbda297f6	-0.079391405
4	0xbd7d47f2	-0.06183619
5	0x3df3c4c8	0.119027674
6	0x3d50bf14	0.050963476
7	0xbc89cc5e	-0.016821083
8	0x3d9afd51	0.075678475
9	0x3cb5cc4c	0.022192143
10	0xbdadfde8	-0.084956944
11	0xbae90931	-0.0017779229
12	0x3b955dab	0.004558285
13	0xbacdc7fe	-0.0015699861
14	0x3d8e0dcc	0.06936225
15	0xbe09d00c	-0.1345827
16	0xbc7a2a23	-0.015268835
17	0xbd485569	-0.04890958
18	0xbd9fa2f3	-0.07794752
19	0xbde47aee	-0.111562595
20	0x3df8a5fc	0.12141034
21	0x3df9eca0	0.12203336
22	0x3d823854	0.063584
23	0xbcffce6c	-0.03122636
24	0x3d13365b	0.03594051
25	0xbd92c012	-0.07165541
26	0xbd870c76	-0.065941736
27	0xbcc87295	-0.0244687
28	0x3e12c25d	0.14331956
29	0xb9115a65	-0.00013861952
30	0x3d4d5913	0.050133776
31	0xbc54a6d2	-0.012979226
32	0xbd159784	-0.03652145
33	0x3dca3bc4	0.09874681
34	0xbda49c44	-0.08037618
35	0xbd824fdb	-0.063628875
36	0xbc2b0ca6	-0.010440027
37	0x3de157ed	0.11003099
38	0xbd17bfe9	-0.037048254
39	0xbdfdd8e7	-0.123948865
40	0x3dafedf0	0.08590305
41	0xbd8535cd	-0.06504402
42	0x3cd23847	0.0256616
43	0x3d928ff2	0.07156362
44	0xbdfc7cbe	-0.1232848
45	0x3dfbad55	0.1228892
46	0xbbc4b821	-0.006003395
47	0xbdd06c6a	-0.10176928
48	0x3d8fee53	0.070278786
49	0xbc9f1bec	-0.019422494
50	0x3e19a535	0.15004428
51	0xbdad628f	-0.08466064
52	0x3bbaf6ef	0.0057057063
53	0xbd91165e	-0.07084344
54	0xbdfee8a6	-0.12446718
55	0x3d0fb048	0.035080224
56	0x3e57af3c	0.2106294
57	0x3db319a8	0.08745128
58	0x3d87d37d	0.06632135
59	0xbdae1d49	-0.085016795
60	0x3c24cb2a	0.010058204
61	0xbe044b76	-0.12919411
62	0xbe6885a7	-0.22707234
63	0xbe102f14	-0.14080459
64	0xbd9b9e89	-0.075985976
65	0x3e79d39e	0.24397132
66	0x3dd3ca1e	0.10341285
67	0xbd729028	-0.05921951
68	0x3c7d88a7	0.015474475
69	0xbd9cc560	-0.07654834
70	0x3e0116c6	0.12606344
71	0x3d9441c1	0.07239104
72	0xbe3ababc	-0.18235296
73	0xbe00401e	-0.12524459
74	0x3c2b152f	0.010442062
75	0xbbe9a45f	-0.0071301903
76	0x3cdb15c4	0.026743777
77	0xbd9859ca	-0.07439001
78	0xbdcbcf57	-0.09951656
79	0xbdcc8c36	-0.099876806
80	0x3ce55edd	0.027999336
81	0x3bad6dc0	0.0052926242
82	0xbbc3f16d	-0.005979708
83	0x3cc302ee	0.023805108

classifier.fc2.weight f4 [10, 84]
0	0xbe8ed02f	-0.27893206
1	0xbd24fd1f	-0.040280458
2	0x3e8c982f	0.27459857
3	0x3d9ca75d	0.076491095
4	0xbe630f53	-0.22173814
5	0xbecef9b2	-0.40424877
6	0x3d943581	0.072367676
7	0x39cedb57	0.00039454803
8	0xbdb92d34	-0.09041825
9	0x3e730e6f	0.23735975
10	0xbe2dca58	-0.1697172
11	0x3ea42d40	0.32065773
12	0x3ec03c5f	0.3754606
13	0xbd40884b	-0.04700498
14	0xbeb43ede	-0.35204214
15	0x3e0d9c14	0.1382907
16	0x3e2db540	0.16963673
17	0xbe59fef2	-0.2128866
18	0x3e3fddaf	0.1873691
19	0x3dd50024	0.104004174
20	0x3c1a1297	0.009403846
21	0xbe2d2649	-0.16909136
22	0x3e457216	0.19281802
23	0xbe8bec17	-0.2732856
24	0x3e28e945	0.16495235
25	0x3e57fb05	0.2109185
26	0xbb563e8d	-0.0032691092
27	0x3e590029	0.21191467
28	0x3dbda8e6	0.092607304
29	0xbed1b23e	-0.409563
30	0x3e90344b	0.28164896
31	0x3ec071e4	0.37586892
32	0x3e4e1041	0.20123388
33	0xbe2acbb1	-0.16679265
34	0x3d90a737	0.07063144
35	0xbe819cd1	-0.25314954
36	0xbab0f90d	-0.0013501957
37	0xbe03e14e	-0.12878916
38	0xbebdd255	-0.37074533
39	0xbe89ac7f	-0.26889417
40	0x3d43e6b1	0.047827426
41	0x3e8a4c84	0.27011502
42	0x3e6ff458	0.23433053
43	0xbe0092d1	-0.12556006
44	0xbdbe333b	-0.09287115
45	0xbe0f62a7	-0.14002477
46	0xbc9307b0	-0.017948002
47	0x3dae981f	0.085251085
48	0xbe0f9015	-0.14019807
49	0xbe89b34d	-0.26894608
50	0xbeb62bad	-0.35580197
51	0x3e118e2d	0.14214392
52	0x3e554f26	0.20830974
53	0x3d300907	0.04297736
54	0xbdcfeef9	-0.10153002
55	0x3ae546d8	0.0017492427
56	0xbe82a74e	-0.25518268
57	0xbe55729b	-0.208445
58	0x3e84e627	0.25956842
59	0x3d7e2036	0.062042437
60	0x3d0b0974	0.033944562
61	0x3e67a8aa	0.22622934
62	0xbdc8f60e	-0.09812556
63	0x3e6ce885	0.23135574
64	0x3e9918b9	0.29901674
65	0xbe6cd4b0	-0.23128009
66	0x3e2cdf44	0.16882044
67	0x3d055259	0.032549236
68	0x3df9d273	0.12198343
69	0x3e8c46a6	0.2739765
70	0x3e8cfddf	0.27537438
71	0xbed05ae7	-0.40694353
72	0x3e37fbd8	0.17967165
73	0xbe06790a	-0.1313211
74	0xbdea012c	-0.11426005
75	0xbdb2e5a1	-0.087352045
76	0xbe2263af	-0.15858339
77	0x3da3686c	0.07978901
78	0xbdbc4232	-0.09192313
79	0x3c991063	0.018684572
80	0xbe45c28b	-0.19312494
81	0x3e812a14	0.25227416
82	0xbe853078	-0.2601354
83	0x3e43b210	0.19110894
84	0xbeb4af7a	-0.35290128
85	0xba8cbb97	-0.0010737058
86	0xbe55b91d	-0.20871396
87	0xbe8d26c1	-0.2756863
88	0xbd386ff1	-0.04502863
89	0x3e6a05ad	0.22853728
90	0x3e16de31	0.14733197
91	0x3cc21155	0.023689905
92	0xbdbdf852	-0.09275879
93	0x3de5aa61	0.11214138
94	0xbdfb5996	-0.122729465
95	0xbd8148a4	-0.06312683
96	0xbe41ed2f	-0.18938135
97	0x3e997900	0.29975128
98	0x3e4a51e4	0.19757801
99	0xbe8d35a2	-0.2757998
100	0xbde7e013	-0.11322036
101	0x3e4e21dc	0.20130104
102	0xbe113b2f	-0.14182733
103	0xbd9f9286	-0.07791619
104	0x3e2b6c32	0.16740492
105	0x3eb3e3cb	0.3513473
106	0x3e522f56	0.2052587
107	0xbe92ba35	-0.2865769
108	0xbe8e0de3	-0.2774497
109	0x3d28d276	0.041216336
110	0x3e81c1f5	0.2534329
111	0xbe29b88f	-0.1657431
112	0x3e3c06fa	0.18362036
113	0xbe30bf8e	-0.17260572
114	0xbe287e53	-0.16454439
115	0x3c01287e	0.007883189
116	0x3ed06fbb	0.40710244
117	0x3e5454c0	0.20735455
118	0x3e6637e6	0.22482261
119	0x3e342f1a	0.17596093
120	0x3e3fd561	0.18733741
121	0x3e7d097c	0.24710649
122	0xbde1bb08	-0.110220015
123	0xbe9808e9	-0.29694298
124	0x3c9a9fec	0.018875085
125	0x3e89ea58	0.26936603
126	0x3d18d2f2	0.037310548
127	0x3ed533b1	0.41641
128	0xbe9a07fb	-0.30084214
129	0x3e808a0c	0.2510532
130	0x3e8bb672	0.27287632
131	0xbe79e703	-0.2440453
132	0x3e3ddb6d	0.18540736
133	0x3eb378b6	0.35053033
134	0x3e818775	0.25298658
135	0xbe88dea0	-0.2673235
136	0xbe57c428	-0.21070921
137	0xbe5acac1	-0.21366407
138	0x3ee2132b	0.4415525
139	0x3e6ab4bf	0.22920512
140	0x3d7c6271	0.06161732
141	0x3ea304d4	0.3183962
142	0xbe5c2fcf	-0.21502613
143	0xbe3c8a88	-0.1841222
144	0xbe28ebb8	-0.1649617
145	0xbe7247e8	-0.23660243
146	0xbeaf7f3f	-0.3427677
147	0xbd8fd52c	-0.07023081
148	0x3cb1ca00	0.021702766
149	0x3e5e7004	0.21722418
150	0xbc4dda7c	-0.012564298
151	0xbdd8ba05	-0.105823554
152	0xb99ec108	-0.00030279928
153	0xbe55746b	-0.20845191
154	0x3e5f3bae	0.2180011
155	0xbe83d8ba	-0.25751287
156	0xbe9d5f0b	-0.30736575
157	0x3e2da482	0.16957286
158	0x3e51a523	0.20473151
159	0xbe301266	-0.17194518
160	0xbd0ec3f0	-0.03485483
161	0x3da8c393	0.08240428
162	0x3e3aaf5b	0.18230955
163	0xbe84e7f2	-0.2595821
164	0xbdccf9e4	-0.100086
165	0xbe051cc0	-0.12999249
166	0xbe1cc403	-0.15309148
167	0x3dbf0f07	0.09329038
168	0xbde9fb85	-0.11424927
169	0x3d072653	0.032995533
170	0x3dfcd5d8	0.12345475
171	0xbdd688b6	-0.10475294
172	0x3d74c623	0.05975927
173	0x3bdf9a53	0.006823817
174	0xbe1089b4	-0.1411503
175	0x3e2fdd51	0.1717427
176	0x3dd3db14	0.1034452
177	0xbdfca86f	-0.12336814
178	0x3e9f58d2	0.31122452
179	0x3e9ef602	0.31047064
180	0xbd75cb4b	-0.06000833
181	0x3e0bdd9d	0.13658758
182	0xbc72209a	-0.014778281
183	0xbeb76675	-0.35820356
184	0x3e5a7c5a	0.21336499
185	0xbe602041	-0.21887304
186	0x3e7b7284	0.24555403
187	0xbe659840	-0.2242136
188	0x3ed5f38d	0.41787377
189	0x3e6cd864	0.23129421
190	0xbeaf9f38	-0.34301162
191	0xbe6035e1	-0.21895553
192	0xbdc711be	-0.09720181
193	0xbc5b8833	-0.013399172
194	0x3ea501db	0.32227978
195	0xbdc62ca4	-0.09676483
196	0x3de0299c	0.10945436
197	0x3dee8471	0.11646355
198	0x3e12bcc6	0.14329824
199	0x3cf461f6	0.029831868
200	0xbe2f08e1	-0.17093231
201	0xbe0e3a11	-0.13889338
202	0xbe6b7e70	-0.22997451
203	0xbedc7182	-0.4305535
204	0xbe52d54d	-0.2058918
205	0xbdef0a97	-0.11671942
206	0x3e57927c	0.21051973
207	0x3e7af8c0	0.24508953
208	0xbd26a8e9	-0.04068843
209	0xbe1d8f91	-0.15386797
210	0x3ed25ffd	0.41088858
211	0xbd9eea4a	-0.07759531
212	0xbe035b6c	-0.12827843
213	0x3d840413	0.064460896
214	0x3dd43a25	0.10362653
215	0xbe844ec4	-0.25841343
216	0x3ea03171	0.3128772
217	0x3e639052	0.22223023
218	0xbd638e37	-0.05555555
219	0x3e3257c1	0.17416288
220	0x3e7b27e1	0.24526931
221	0x3e5d1537	0.21590124
222	0xbe4f69d0	-0.20255208
223	0x3d853517	0.06504267
224	0xbe1623a5	-0.14662035
225	0xbe5d0575	-0.21584113
226	0x3e84d9f3	0.25947532
227	0xbec12913	-0.3772665
228	0x3e46f547	0.19429503
229	0xbea86bec	-0.32894838
230	0xbe407dad	-0.18797942
231	0xbc97e37d	-0.018541092
232	0x3e99d587	0.3004572
233	0x3e8070da	0.250861
234	0xbd0e8ede	-0.034804218
235	0x3e345fb9	0.1761464
236	0xbd7d9a1d	-0.061914552
237	0xbe0a7e75	-0.13524802
238	0x3c6ea28f	0.014565124
239	0x3e747494	0.23872596
240	0x3dd83136	0.10556261
241	0x3eab39bc	0.33442485
242	0xbd936438	-0.071968496
243	0x3db60abe	0.08888768
244	0xbe0108c3	-0.12600999
245	0xbd0046f4	-0.031317666
246	0xbe70b0fc	-0.23505014
247	0xbe84d728	-0.259454
248	0x3ec7b736	0.39006966
249	0x3d62cb12	0.055369444
250	0xbe1112b5	-0.14167292
251	0x3e878f51	0.2647653
252	0x3e886f7f	0.26647565
253	0x3e47d7b0	0.19515872
254	0xbdd74647	-0.10511451
255	0x3e87d918	0.26532817

classifier.fc2.bias f4 [10]
0	0xbe15e27c	-0.14637178
1	0x3c6c57f8	0.01442527
2	0x3e205723	0.1565824
3	0x3d57c085	0.052673835
4	0xbd485d51	-0.04891712
5	0x3dfdd182	0.12393476
6	0xbe26c2a0	-0.16285181
7	0x3df5d523	0.12003543
8	0xbddceeb5	-0.10787717
9	0x3db81fb6	0.089904234
